../juliet/prep/CWE190,26/12/2020,11:18:14,"GCN(   (conv1): GCNConv(50, 64)   (conv2): GCNConv(64, 64)   (conv3): GCNConv(64, 64)   (lin): Linear(in_features=64, out_features=2, bias=True) )",414,0.01,CrossEntropyLoss(),… ../juliet/prep/CWE90,26/12/2020,11:39:22,"GCN(   (conv1): GCNConv(50, 64)   (conv2): GCNConv(64, 64)   (conv3): GCNConv(64, 64)   (lin): Linear(in_features=64, out_features=2, bias=True) )",4230,0.01,CrossEntropyLoss(),… ../juliet/prep/CWE23,26/12/2020,11:44:10,"GCN(   (conv1): GCNConv(50, 64)   (conv2): GCNConv(64, 64)   (conv3): GCNConv(64, 64)   (lin): Linear(in_features=64, out_features=2, bias=True) )",8525,0.01,CrossEntropyLoss(),… ../juliet/prep/CWE129,26/12/2020,11:47:26,"GCN(   (conv1): GCNConv(50, 64)   (conv2): GCNConv(64, 64)   (conv3): GCNConv(64, 64)   (lin): Linear(in_features=64, out_features=2, bias=True) )",5396,0.01,CrossEntropyLoss(),… ../juliet/prep/CWE190,26/12/2020,12:25:05,"GCN(   (conv1): GCNConv(50, 64)   (conv2): GCNConv(64, 64)   (conv3): GCNConv(64, 64)   (lin): Linear(in_features=64, out_features=2, bias=True) )",448,0.01,CrossEntropyLoss(),… ../juliet/prep/CWE90,26/12/2020,12:45:31,"GCN(   (conv1): GCNConv(50, 64)   (conv2): GCNConv(64, 64)   (conv3): GCNConv(64, 64)   (lin): Linear(in_features=64, out_features=2, bias=True) )",485,0.01,CrossEntropyLoss(),… ../juliet/prep/CWE23,26/12/2020,12:47:59,"GCN(   (conv1): GCNConv(50, 64)   (conv2): GCNConv(64, 64)   (conv3): GCNConv(64, 64)   (lin): Linear(in_features=64, out_features=2, bias=True) )",7635,0.01,CrossEntropyLoss(),… ../juliet/prep/CWE129,26/12/2020,12:51:13,"GCN(   (conv1): GCNConv(50, 64)   (conv2): GCNConv(64, 64)   (conv3): GCNConv(64, 64)   (lin): Linear(in_features=64, out_features=2, bias=True) )",3092,0.01,CrossEntropyLoss(),… ../juliet/prep/CWE190,26/12/2020,23:57:50,"GCN(   (conv1): GCNConv(50, 64)   (conv2): GCNConv(64, 64)   (conv3): GCNConv(64, 64)   (lin): Linear(in_features=64, out_features=2, bias=True) )",3645,0.01,CrossEntropyLoss(),… ../juliet/prep/CWE90,27/12/2020,00:18:43,"GCN(   (conv1): GCNConv(50, 64)   (conv2): GCNConv(64, 64)   (conv3): GCNConv(64, 64)   (lin): Linear(in_features=64, out_features=2, bias=True) )",857,0.01,CrossEntropyLoss(),… ../juliet/prep/CWE23,27/12/2020,00:23:31,"GCN(   (conv1): GCNConv(50, 64)   (conv2): GCNConv(64, 64)   (conv3): GCNConv(64, 64)   (lin): Linear(in_features=64, out_features=2, bias=True) )",3315,0.01,CrossEntropyLoss(),… ../juliet/prep/CWE129,27/12/2020,00:26:45,"GCN(   (conv1): GCNConv(50, 64)   (conv2): GCNConv(64, 64)   (conv3): GCNConv(64, 64)   (lin): Linear(in_features=64, out_features=2, bias=True) )",5825,0.01,CrossEntropyLoss(),… ../juliet/prep/CWE89,27/12/2020,00:47:13,"GCN(   (conv1): GCNConv(50, 64)   (conv2): GCNConv(64, 64)   (conv3): GCNConv(64, 64)   (lin): Linear(in_features=64, out_features=2, bias=True) )",4292,0.01,CrossEntropyLoss(),… ../juliet/prep/CWE606,27/12/2020,01:07:05,"GCN(   (conv1): GCNConv(50, 64)   (conv2): GCNConv(64, 64)   (conv3): GCNConv(64, 64)   (lin): Linear(in_features=64, out_features=2, bias=True) )",4519,0.01,CrossEntropyLoss(),… ../juliet/prep/CWE606,27/12/2020,01:12:13,"GCN(   (conv1): GCNConv(50, 64)   (conv2): GCNConv(64, 64)   (conv3): GCNConv(64, 64)   (lin): Linear(in_features=64, out_features=2, bias=True) )",8961,0.01,CrossEntropyLoss(),… ../juliet/prep/CWE190,27/12/2020,01:18:09,"GCN(   (conv1): GCNConv(50, 64)   (conv2): GCNConv(64, 64)   (conv3): GCNConv(64, 64)   (lin): Linear(in_features=64, out_features=2, bias=True) )",2421,0.01,CrossEntropyLoss(),… ../juliet/prep/CWE90,27/12/2020,01:39:43,"GCN(   (conv1): GCNConv(50, 64)   (conv2): GCNConv(64, 64)   (conv3): GCNConv(64, 64)   (lin): Linear(in_features=64, out_features=2, bias=True) )",6411,0.01,CrossEntropyLoss(),… ../juliet/prep/CWE23,27/12/2020,01:41:58,"GCN(   (conv1): GCNConv(50, 64)   (conv2): GCNConv(64, 64)   (conv3): GCNConv(64, 64)   (lin): Linear(in_features=64, out_features=2, bias=True) )",2713,0.01,CrossEntropyLoss(),… ../juliet/prep/CWE129,27/12/2020,01:45:17,"GCN(   (conv1): GCNConv(50, 64)   (conv2): GCNConv(64, 64)   (conv3): GCNConv(64, 64)   (lin): Linear(in_features=64, out_features=2, bias=True) )",2821,0.01,CrossEntropyLoss(),… ../juliet/prep/CWE789,27/12/2020,02:35:03,"GCN(   (conv1): GCNConv(50, 64)   (conv2): GCNConv(64, 64)   (conv3): GCNConv(64, 64)   (lin): Linear(in_features=64, out_features=2, bias=True) )",9685,0.01,CrossEntropyLoss(),… ../juliet/prep/CWE470,27/12/2020,02:39:41,"GCN(   (conv1): GCNConv(50, 64)   (conv2): GCNConv(64, 64)   (conv3): GCNConv(64, 64)   (lin): Linear(in_features=64, out_features=2, bias=True) )",8486,0.01,CrossEntropyLoss(),… ../juliet/prep/CWE601,27/12/2020,02:40:41,"GCN(   (conv1): GCNConv(50, 64)   (conv2): GCNConv(64, 64)   (conv3): GCNConv(64, 64)   (lin): Linear(in_features=64, out_features=2, bias=True) )",1863,0.01,CrossEntropyLoss(),… ../juliet/prep/CWE606,27/12/2020,02:43:44,"GCN(   (conv1): GCNConv(50, 64)   (conv2): GCNConv(64, 64)   (conv3): GCNConv(64, 64)   (lin): Linear(in_features=64, out_features=2, bias=True) )",7131,0.01,CrossEntropyLoss(),… ../juliet/prep/CWE80,27/12/2020,02:49:54,"GCN(   (conv1): GCNConv(50, 64)   (conv2): GCNConv(64, 64)   (conv3): GCNConv(64, 64)   (lin): Linear(in_features=64, out_features=2, bias=True) )",9943,0.01,CrossEntropyLoss(),… ../juliet/prep/CWE319,27/12/2020,02:51:41,"GCN(   (conv1): GCNConv(50, 64)   (conv2): GCNConv(64, 64)   (conv3): GCNConv(64, 64)   (lin): Linear(in_features=64, out_features=2, bias=True) )",5462,0.01,CrossEntropyLoss(),… ../juliet/prep/CWE369,27/12/2020,03:06:27,"GCN(   (conv1): GCNConv(50, 64)   (conv2): GCNConv(64, 64)   (conv3): GCNConv(64, 64)   (lin): Linear(in_features=64, out_features=2, bias=True) )",70,0.01,CrossEntropyLoss(),… ../juliet/prep/CWE113,27/12/2020,03:17:08,"GCN(   (conv1): GCNConv(50, 64)   (conv2): GCNConv(64, 64)   (conv3): GCNConv(64, 64)   (lin): Linear(in_features=64, out_features=2, bias=True) )",345,0.01,CrossEntropyLoss(),… ../juliet/prep/CWE81,27/12/2020,03:24:05,"GCN(   (conv1): GCNConv(50, 64)   (conv2): GCNConv(64, 64)   (conv3): GCNConv(64, 64)   (lin): Linear(in_features=64, out_features=2, bias=True) )",9218,0.01,CrossEntropyLoss(),… ../juliet/prep/CWE563,27/12/2020,03:27:14,"GCN(   (conv1): GCNConv(50, 64)   (conv2): GCNConv(64, 64)   (conv3): GCNConv(64, 64)   (lin): Linear(in_features=64, out_features=2, bias=True) )",4252,0.01,CrossEntropyLoss(),… ../juliet/prep/CWE506,27/12/2020,03:28:03,"GCN(   (conv1): GCNConv(50, 64)   (conv2): GCNConv(64, 64)   (conv3): GCNConv(64, 64)   (lin): Linear(in_features=64, out_features=2, bias=True) )",7800,0.01,CrossEntropyLoss(),… ../juliet/prep/CWE89,27/12/2020,03:29:34,"GCN(   (conv1): GCNConv(50, 64)   (conv2): GCNConv(64, 64)   (conv3): GCNConv(64, 64)   (lin): Linear(in_features=64, out_features=2, bias=True) )",685,0.01,CrossEntropyLoss(),… ../juliet/prep/CWE690,27/12/2020,03:49:01,"GCN(   (conv1): GCNConv(50, 64)   (conv2): GCNConv(64, 64)   (conv3): GCNConv(64, 64)   (lin): Linear(in_features=64, out_features=2, bias=True) )",785,0.01,CrossEntropyLoss(),… ../juliet/prep/CWE643,27/12/2020,03:50:11,"GCN(   (conv1): GCNConv(50, 64)   (conv2): GCNConv(64, 64)   (conv3): GCNConv(64, 64)   (lin): Linear(in_features=64, out_features=2, bias=True) )",6787,0.01,CrossEntropyLoss(),… ../juliet/prep/CWE398,27/12/2020,03:54:40,"GCN(   (conv1): GCNConv(50, 64)   (conv2): GCNConv(64, 64)   (conv3): GCNConv(64, 64)   (lin): Linear(in_features=64, out_features=2, bias=True) )",4893,0.01,CrossEntropyLoss(),… ../juliet/prep/CWE400,27/12/2020,03:55:32,"GCN(   (conv1): GCNConv(50, 64)   (conv2): GCNConv(64, 64)   (conv3): GCNConv(64, 64)   (lin): Linear(in_features=64, out_features=2, bias=True) )",7016,0.01,CrossEntropyLoss(),… ../juliet/prep/CWE36,27/12/2020,04:06:18,"GCN(   (conv1): GCNConv(50, 64)   (conv2): GCNConv(64, 64)   (conv3): GCNConv(64, 64)   (lin): Linear(in_features=64, out_features=2, bias=True) )",854,0.01,CrossEntropyLoss(),… ../juliet/prep/CWE197,27/12/2020,04:08:49,"GCN(   (conv1): GCNConv(50, 64)   (conv2): GCNConv(64, 64)   (conv3): GCNConv(64, 64)   (lin): Linear(in_features=64, out_features=2, bias=True) )",7554,0.01,CrossEntropyLoss(),… ../juliet/prep/CWE78,27/12/2020,04:13:55,"GCN(   (conv1): GCNConv(50, 64)   (conv2): GCNConv(64, 64)   (conv3): GCNConv(64, 64)   (lin): Linear(in_features=64, out_features=2, bias=True) )",3668,0.01,CrossEntropyLoss(),… ../juliet/prep/CWE259,27/12/2020,04:15:30,"GCN(   (conv1): GCNConv(50, 64)   (conv2): GCNConv(64, 64)   (conv3): GCNConv(64, 64)   (lin): Linear(in_features=64, out_features=2, bias=True) )",9844,0.01,CrossEntropyLoss(),… ../juliet/prep/CWE191,27/12/2020,04:17:14,"GCN(   (conv1): GCNConv(50, 64)   (conv2): GCNConv(64, 64)   (conv3): GCNConv(64, 64)   (lin): Linear(in_features=64, out_features=2, bias=True) )",5375,0.01,CrossEntropyLoss(),… ../juliet/prep/CWE83,27/12/2020,04:33:15,"GCN(   (conv1): GCNConv(50, 64)   (conv2): GCNConv(64, 64)   (conv3): GCNConv(64, 64)   (lin): Linear(in_features=64, out_features=2, bias=True) )",7715,0.01,CrossEntropyLoss(),… ../juliet/prep/CWE15,27/12/2020,04:35:54,"GCN(   (conv1): GCNConv(50, 64)   (conv2): GCNConv(64, 64)   (conv3): GCNConv(64, 64)   (lin): Linear(in_features=64, out_features=2, bias=True) )",2255,0.01,CrossEntropyLoss(),… ../juliet/prep/CWE134,27/12/2020,04:37:16,"GCN(   (conv1): GCNConv(50, 64)   (conv2): GCNConv(64, 64)   (conv3): GCNConv(64, 64)   (lin): Linear(in_features=64, out_features=2, bias=True) )",9954,0.01,CrossEntropyLoss(),… 